submission_remote/mnist/submission_params_and_model/digits_recognizer.pth (torch, 161024 bytes, 4 tensors)

fc1.weight f4 [50, 784]
00000000: b7df 543c 859d 58bc 3315 fc3c 25a0 543c
00000010: 8aae 98bb 93dc fc3a b8f5 63bc 1cd5 573c
00000020: bae4 97bc 93d7 ed3a cab9 f8bb 73be 1a3c
00000030: 4a54 adba 7ccf 1f3c 9ccf 053d 3790 503c
00000040: 8ac8 bb3b 0aaf bbbc 4771 9abc ba46 aa3c
00000050: 1578 98bc a543 113b 3815 7cbb ea22 c6bc
00000060: 1cab 65bc aedd c7bc 9508 903c 1a3d 0a3d
00000070: dcc3 703b 2e4e 023c 4a85 5dbc 5d6d 0b3d
00000080: e0f5 213c 0a9a 9a3c 153e 113d c726 9b3c
00000090: feea f83c 21c7 3b3c 5c42 2f3b edc1 0b3d
000000a0: 1031 103d dc0b 90ba 771d 103d 9014 a03c
000000b0: 13a7 eabc ee12 243b 68e4 dd3c 3383 5abc
000000c0: 10d9 973c 0194 f8b9 f711 abbb 6ecd 603a
000000d0: 5857 073d 77ea a43b baee c5bc cd14 123d
000000e0: b3b5 bbbc 2ab5 063c 5369 953c 01e3 52bc
000000f0: 2a30 2a3c 9d5a 0a3d 6ed4 c6bb f15d f4bc
00000100: fe0f 84bc b6e8 0b3d eebb 053d dad9 ca3c
00000110: 77be d5bb 1a5d edbc 1740 a1bc 35b9 bfbc
00000120: ca0a 4a3c aeea f9bc 37c1 483c fa14 a0bc
00000130: cca4 fc3c c58a 023c a1f2 eabc 7883 65bc
00000140: 45df b73c 83c0 d1bc cad2 183c bda5 0c3d
00000150: 4515 6bbc 80de 093c 9381 723b a5ea c3bc
00000160: a0f5 0d3d 75dd 96bc 7038 9b3c 17b1 d63c
00000170: 8a80 35bc 652e 36bc 6e2b bfb9 5011 81bc
00000180: 6aa3 e03c 0ac9 0f3d aa20 d4bc 9c6d 2e3c
00000190: 1c48 f93b 5083 9abc feb9 8e3c 5ed0 81bc
000001a0: fc93 cdbc 9ea4 e8bc 7143 f83c dc18 57bb
000001b0: 0065 85bb 0040 1539 418f 7dbc 57ae aa3c
000001c0: 1300 7abb 25c3 e1bc 3c8a e5bc 5769 0b3c
000001d0: 4fa7 ef3c e2e1 323b 2034 703c 767d 06bd
000001e0: ab6e 86bd 5edf 58bd 8e4b 893c 4773 a83c
000001f0: 0e1c e53c 55e8 cabb 5689 18bc e451 343d
00000200: 1b92 433d a73b 9d3c a634 35bd 53d1 8abc
00000210: 4536 b4bc e2ef a13b a7b9 babc 678c 2f3d
00000220: 13d7 983c 1c46 7abc 2111 fdbc 3e7f 80bc
00000230: 53ea 323c c552 1abc 41ea 37bc a5e0 7ebb
00000240: d4df 50bc 3055 e33c 3312 0c3d e370 a93b
00000250: a03f 7e3d 66b6 3e3d 8207 043d cc6b 733d
00000260: 9373 c23d 460b 043e 6975 af3d 5daf a43d
00000270: f4c7 a53d da21 c03d 17ca 8d3d 07db 0c3d
00000280: 4d75 09bc 8b44 bdbd 629f ebbd e285 2e3b
00000290: 4479 063d b701 a539 2599 69b9 5793 a2bc
000002a0: 93f7 8aba f3e0 db3c 933c c73b 6cc2 de3c
000002b0: 5941 b4bd a33c 0c3b beb6 753d b0e0 553d
000002c0: 18bc ac3d 7030 7c3c e512 febb 6cc0 4b3d
000002d0: 28e0 bb3c df35 c13b f745 4a3d a73d 673c
000002e0: 91a9 01bc d1f0 ccbc 9dac 153d 2cf0 ce3c
000002f0: 0107 22bd f142 00bd 8711 3dbd baf7 71bc
00000300: b366 7abc 8c90 063d 4a3a 463c a515 c23c
00000310: 33d6 bc3c 0145 feba 6f0b 083d 8119 e4bb
00000320: a628 85bc 5865 ec3c a89d 8e3d 61e6 1c3d
00000330: 65bf 453d b87a ac3c 7e96 993c 8887 193d
00000340: a2db 493b 3ab9 e5bc 882c b8ba 3878 0bbc
00000350: e1a5 1cbd d2a1 60bd b627 323b dfce 493c
00000360: b56c 973a 5502 813d a870 4d3d 7371 c63c
00000370: 9493 01bd 0047 9bbc 5554 aa3c aa82 13bc
00000380: 3872 ffbc 172c 9fbc 4e1d c53c fcfa ac3c
00000390: 290a be3c e027 c53d edfe 013e 9ca3 c23d
000003a0: 71f4 963d 514b 7f3d 73d2 ef3c 4002 b63b
000003b0: 3d26 08bd b1f6 06bd d6ba 5dbd 4f21 21bd
000003c0: d21b 903c 7c6b 7d3c 349d 54bc d954 503d
000003d0: 8d35 a43d 4c54 993d 26ef bd3d aa1b 9e3d
000003e0: 1c0a e3bc c2ac 11bd b88b 75ba 227c 03bd
000003f0: 3aff e23c da6a d6bc d39b f0bb 77ad 9b3c
0.012992791 -0.013221149 0.030771827 0.012977635 -0.0046594786 0.001929181 -0.013913564 0.013173368
-0.018541683 0.0018145911 -0.007590507 0.009444821 -0.0013223973 0.009754058 0.032668695 0.012729696
0.005730693 -0.022910614 -0.018852843 0.020785678 -0.018611947 0.0022165563 -0.0038464796 -0.02418657
-0.014017846 -0.024397697 0.017582217 0.033749677 0.0036737835 0.00795321 -0.013520548 0.034039844
0.009885281 0.01887228 0.035459597 0.018939389 0.03038549 0.01146105 0.0026742434 0.03412049
0.03520304 -0.0010989862 0.03518435 0.019541055 -0.02864412 0.0025035697 0.027086452 -0.013336944
0.01853612 -0.00047412518 -0.0052206474 0.0008575533 0.033042282 0.005032833 -0.024161685 0.03566437
-0.02291379 0.008221904 0.018238699 -0.012871505 0.01038746 0.03377782 -0.006067804 -0.029829951
-0.016120907 0.034157477 0.032649927 0.024762083 -0.0065229493 -0.028975058 -0.01968388 -0.023403743
0.012331674 -0.030507412 0.012253097 -0.019541252 0.0308403 0.007967656 -0.028680148 -0.014008395
0.02244533 -0.025604492 0.0093276 0.034337748 -0.014348333 0.008414865 0.0037003502 -0.023915598
0.034658074 -0.018416146 0.01894781 0.02620749 -0.011078009 -0.01111946 -0.00036462717 -0.015755326
0.027421672 0.035103835 -0.025894482 0.01064625 0.007607473 -0.018861443 0.017422672 -0.015846428
-0.025094979 -0.028398808 0.030305596 -0.0032821214 -0.004070878 0.00014233589 -0.015476049 0.020835085
-0.0038147017 -0.027558872 -0.028020017 0.008509002 0.029254584 0.0027295281 0.014660865 -0.032834493
-0.06564077 -0.052947395 0.01675966 0.020562781 0.02796748 -0.006192247 -0.009310087 0.04402341
0.04774676 0.019193484 -0.044239663 -0.016945517 -0.021998534 0.0049419263 -0.022793604 0.042858507
0.018657243 -0.015275504 -0.030891957 -0.015685674 0.010920125 -0.009419148 -0.011225284 -0.0038891223
-0.012748677 0.027750582 0.034197044 0.005170928 0.062072396 0.046560667 0.032233723 0.059428975
0.094947 0.12894925 0.08567316 0.080412604 0.08094779 0.09381457 0.06923311 0.03438857
-0.008389783 -0.09241589 -0.11505009 0.0026630093 0.03283049 0.0003147253 -0.00022277662 -0.019845648
-0.0010602347 0.026840663 0.006080219 0.027192317 -0.088015266 0.0021398447 0.05998873 0.05221623
0.084343135 0.015392408 -0.0077537172 0.049744055 0.022934034 0.0058963145 0.04938313 0.01411382
-0.007913963 -0.025017174 0.03654157 0.025261007 -0.03955746 -0.03131384 -0.046159294 -0.014768535
-0.015283274 0.032852694 0.012098858 0.023691962 0.023051357 -0.0019399227 0.03321403 -0.006961048
-0.016254734 0.028856918 0.06963664 0.038305644 0.04827823 0.02105461 0.018748518 0.03748277
0.0030801077 -0.028042424 -0.0014051357 -0.008512549 -0.038244132 -0.054841824 0.0027184314 0.012317388
0.0011552783 0.06299273 0.050156265 0.024224019 -0.031634882 -0.018954754 0.020792166 -0.009003321
-0.031182393 -0.019430203 0.024061825 0.021115772 0.023198204 0.09626746 0.12694903 0.09503862
0.07370842 0.062327687 0.029275155 0.0055544674 -0.033239592 -0.032950107 -0.05413326 -0.039338406
0.01759139 0.015467521 -0.012976933 0.050862167 0.080180265 0.074867815 0.092741296 0.0772012
-0.027714781 -0.035565145 -0.0009366828 -0.032100804 0.027709592 -0.026173998 -0.0073427944 0.019003613

fc1.bias f4 [50]
00000000: 3a32 b23d e0ba 34be c16a 6cbe d0a2 4cbd
00000010: 07f1 673e 4fb2 3abe d06a 103c 6284 4c3d
00000020: 4525 d8bd 18c7 f7bd f31d 663e 2d73 443e
00000030: 7ef2 7c3d a24e 9dbd 5676 a23e 6333 8b3c
00000040: 64d9 8d3e 2e4f a9be 9a85 1bbd 014c 3abe
00000050: e781 4f3e 6f3c edbc 12b0 b237 256f a23e
00000060: ca8c 81bd 0e3b 843d 4ae1 a2bc b54d 803e
00000070: 590b cf3e 80b4 5cbe 490d f73e 268c abbc
00000080: a026 9a3d db43 163e 4c2d c3bd f4b3 3fbe
00000090: 8cbb ed3e 469d 00be 1150 66be 3987 b1be
000000a0: 74f8 27be dce9 a83d a5de 163e 63c2 9cbe
000000b0: 237f 353d 38a9 983e 9498 b13d 6b11 3ebe
000000c0: 2843 b53e fd9e 28be
0.08700986 -0.17649412 -0.23087598 -0.049959958 0.22650538 -0.18232082 0.008814529 0.049930938
-0.105539836 -0.12098521 0.22472362 0.19184561 0.061754696 -0.07681014 0.31730908 0.016992277
0.27704918 -0.33068222 -0.03796921 -0.18193056 0.20264398 -0.028959481 2.1301243e-05 0.31725422
-0.063256815 0.06456576 -0.019882817 0.25059286 0.40438345 -0.2155323 0.48252323 -0.020940851
0.075268984 0.14674322 -0.09530124 -0.1872099 0.4643215 -0.12559995 -0.2249148 -0.3467348
-0.16403371 0.0824773 0.1473337 -0.30617055 0.0443107 0.29816604 0.0867168 -0.18561332
0.354028 -0.16466899

fc2.weight f4 [10, 50]
00000000: 4377 81be f3cc e3bd 4e35 06be 729a 083e
00000010: c52a 16bd 716a b83d a52a 8d3d 529b 673d
00000020: fb36 97be e0eb 0e3e 9a12 aabd 244a bf3d
00000030: d1e0 c53d b7e1 953d 8f8b dabd 96eb 6abd
00000040: e5df 85bd 02dd ee3c 4bf1 42bd cfe0 28be
00000050: 33ab b5be a62f 06bc f9e7 77bd d94f dcbd
00000060: abb8 be3d bbb1 0c3d d97d f1bd c2b2 b33d
00000070: 129e 293d b1c4 e63d 02c7 df3c 39ab e4bd
00000080: fbbb af3d 3846 203d 7ed2 bd3d 74e5 09bb
00000090: d645 3abe 86ee 123e b297 b5bd f0ba 12be
000000a0: 2cf7 bfbd fa1a 32bc cf44 c43d c962 143e
000000b0: 2bc9 54be 54f5 71be c6db 0e3e 707e 423d
000000c0: ad4b eabd e93b a03d 4d1f 3dbe 1928 df3d
000000d0: dd62 3b3d 7a4a 07be 65d2 163e fd75 abbe
000000e0: 746d ec3d 7915 04be 77fe 59be dfa6 c8ba
000000f0: 30e7 463e df95 e03d 6d9d a9bd 5e54 afbe
00000100: a46a 9d3c 76c0 81be 1b5d 8b3d 7435 74bb
00000110: 7a4f a93d 09c8 c8be 4cd9 b8be a087 debe
00000120: 7d50 4a3d 6e4c f0be b02a 243e 99c8 943d
00000130: 3f7b 28be 95f8 3cbe 0c5f da3d 7e9e 383e
00000140: 9737 bbbb 364f 853d b817 e0be 5bdf a63d
00000150: 78c2 b7be 4742 b2be dc13 a2be e6cc 40be
00000160: 7096 e83d cbf6 e23d 92f9 b73d 7ee7 c0bd
00000170: b0e3 ae3d 6688 54be d1c0 d83d c036 363d
00000180: 62cc 39be 21d1 9e3d febf 243e d01c 56be
00000190: 0def 18be 86d5 c33d 7fdd 9f3d c925 8d3d
000001a0: bc17 d83d 4f84 b0bd 8f93 1c3c 8f89 2c3d
000001b0: 53d3 913d 34ee bf3d ece2 23bd 88ea 913d
000001c0: a941 ce3d 6c84 033d ac64 ca3d c8ad b13d
000001d0: 15ea 223d 1289 093e 8f2c 0d3e 596b 52be
000001e0: 5691 57bd 41e3 dfbc ceef a83d 8bfb f3bd
000001f0: 7d8c 31be e0fd c23d 9931 c1bd 97c2 f1bc
00000200: 6149 b4be a992 00be f6d2 39bd d051 71be
00000210: 0ba8 e53d c1b7 a63d 6e45 c6bd 7130 be3d
00000220: e17a fabc f421 123e 2feb 613d 6825 50bd
00000230: 9dff a73d dc06 35bd 7ebd 80bd b841 b8bc
00000240: 4577 0fb8 8dcd bcbd 91cd cc3d 41b9 9abd
00000250: d222 073e 9811 693d 9095 433c ac78 febc
00000260: ba65 2b3d 8f2c c9bd 8be9 e53c 0067 b03d
00000270: 9d52 92be d578 8b3d 6595 2bbe 7e3d 803c
00000280: 69d4 ec3d c5e9 4a3d e13b e03d 0871 213d
00000290: 6b7b 9abd 1d71 a1bd 5c9e dbbd beee c43d
000002a0: 3286 893d 882f 9bbc 1a27 203d a9ee 743c
000002b0: 54d1 683d e78d 94bd 5721 b9bd 8d9b a73d
000002c0: 1621 303e 1a0f 5b3d aa39 3bbd ca3e eebd
000002d0: e196 1ebe d3a9 9a3d e8a4 a1bc 7419 da3d
000002e0: f655 edbd 2592 fcbd dd25 073e 1516 073e
000002f0: af26 103e cc03 b2bd 1011 ad3d 9ffb ae3d
00000300: 020c 41be 816d 2b3d 9678 c63c f51f 04be
00000310: dfb9 59bd 4e00 46be 8ade 1fbd b778 1c3d
00000320: fb84 143d 19d0 02be 51e5 3bbe e9bf c43d
00000330: fdac d03d 38cf 18be f3e7 833d 7c5b f4be
00000340: 3032 fa3d 737e 1dbd cd29 8fbd ec54 153d
00000350: 9b31 67be 0e07 5cbe 61f6 953d 4a16 c0bd
00000360: 2336 063e 667a 6bbe 2e5d 95bd 108f b5bc
00000370: 38cf 383d 5ff6 b5be e48c e0bd de9a 17bd
00000380: eb21 003e cea9 c6bd 4140 023e ca93 2fbe
00000390: fd2a 7abc c67e 51be f028 033e 18d3 a9bd
000003a0: 49d7 c23d 493c 87be 9373 353d f0a3 0f3e
000003b0: f290 123e ef58 84bd dac3 533d de6e f63d
000003c0: 21ad 50be 7d76 1ebe 47d3 ad3d 7cd0 2ebe
000003d0: c316 9b3d b5e5 d53d 9be9 df3d 4152 38be
000003e0: cb0e d13d 3726 863d 3495 0d3b 16a3 d83d
000003f0: db87 d0bd 22dc 0fbb 97e1 0dbe fb3a f4bc
-0.25286302 -0.11123075 -0.13106272 0.13340166 -0.036661882 0.09004677 0.068928994 0.05654461
-0.29534134 0.13957167 -0.08304329 0.09340313 0.09662021 0.07318442 -0.1067115 -0.05735358
-0.06536845 0.02915812 -0.047593396 -0.16492008 -0.35482177 -0.008190071 -0.06052396 -0.10757417
0.09312566 0.034349184 -0.11791582 0.0877433 0.041410513 0.11267985 0.027316574 -0.11165471
0.08580776 0.039129466 0.09268664 -0.0021041306 -0.18190703 0.14348802 -0.08866824 -0.14329123
-0.09373316 -0.0108706895 0.09583437 0.14490809 -0.20779864 -0.23628742 0.13951024 0.04748386
-0.11440215 0.07823927 -0.18468972 0.1089632 0.04574858 -0.13212004 0.14728697 -0.33488455
0.11544314 -0.12898816 -0.21288477 -0.001530852 0.19424129 0.10966086 -0.0828198 -0.34244055
0.01921589 -0.2534215 0.06804868 -0.0037263306 0.08267112 -0.39215115 -0.36103284 -0.4346285
0.049393166 -0.4693331 0.16031909 0.072648235 -0.16453265 -0.18454202 0.1066266 0.1802921
-0.005713414 0.06509249 -0.43768096 0.081480704 -0.35890555 -0.3481619 -0.31655777 -0.18828163
0.11356819 0.11082228 0.08983149 -0.09419154 0.08539522 -0.20755157 0.10583652 0.044485807
-0.18144372 0.07754732 0.16088864 -0.20909429 -0.1493494 0.09562211 0.07805919 0.068919726
0.10551402 -0.08618986 0.009556665 0.042123374 0.07120385 0.093716055 -0.04001133 0.071248114
0.100711174 0.03210871 0.09882483 0.08675724 0.03977402 0.13431194 0.13786529 -0.20548762
-0.052628838 -0.027330043 0.08248864 -0.119132124 -0.17338748 0.09521079 -0.09433288 -0.029511733
-0.35212234 -0.12555946 -0.045367204 -0.23566365 0.11213692 0.08140517 -0.096812114 0.09286583
-0.030576171 0.14270765 0.05515593 -0.050816923 0.08203051 -0.044195995 -0.06286143 -0.022492275
-3.4204935e-05 -0.09218893 0.10000146 -0.07554866 0.13196877 0.056901544 0.011937514 -0.0310634
0.04184506 -0.09822952 0.028065464 0.08613396 -0.28578654 0.06810156 -0.16756208 0.015654322
0.115639515 0.049539346 0.10948921 0.039414436 -0.07543071 -0.07882903 -0.10723564 0.09615849
0.06715049 -0.018943563 0.03909979 0.014949479 0.056840256 -0.07253628 -0.09039562 0.08183966
0.17200121 0.0534812 -0.04570929 -0.1163307 -0.15487243 0.07551923 -0.019731954 0.10649386
-0.115886614 -0.12332562 0.13198037 0.13192017 0.14077257 -0.086921304 0.0845052 0.08544087
-0.18852237 0.041852478 0.024227422 -0.12902816 -0.053155776 -0.19336054 -0.03903059 0.03820106
0.036259633 -0.12774695 -0.18349196 0.096069165 0.10189245 -0.14922798 0.06440725 -0.47726047
0.12216604 -0.03845067 -0.06990395 0.03645794 -0.22577517 -0.21487066 0.07322384 -0.09379251
0.13106589 -0.2299591 -0.07293163 -0.022162944 0.045119494 -0.3553953 -0.10964373 -0.037012927
0.12512939 -0.097003564 0.12719823 -0.17146221 -0.015269038 -0.20458516 0.12808585 -0.08292216
0.09513719 -0.2641318 0.044299673 0.14027381 0.14313105 -0.06462275 0.05170045 0.12032865
-0.20378543 -0.15474887 0.084875636 -0.17071718 0.07572701 0.10444204 0.109332286 -0.18000127
0.102079 0.06550258 0.0021603825 0.10577981 -0.101821624 -0.0021951278 -0.13855587 -0.02981328

fc2.bias f4 [10]
00000000: d76f 1ebe fa8b 8e3f be00 23bf 2535 97be
00000010: 2186 c23e 1440 2f3e d04a 463b 01df 1f3e
00000020: 9c11 d6be 30b1 fd3c
-0.15472351 1.1136467 -0.6367301 -0.29532734 0.37992957 0.17114288 0.0030256994 0.15612413
-0.4181031 0.030968279
